…
You should probably TRAIN this model on a down-stream task to be able to use it for predictions and inference.
Some weights of BertModel were not initialized from the model checkpoint at ./MatSciBERT and are newly initialized because the shapes did not match:
- bert.embeddings.position_embeddings.weight: found shape torch.Size([512, 768]) in the checkpoint and torch.Size([900, 768]) in the model instantiated
You should probably TRAIN this model on a down-stream task to be able to use it for predictions and inference.
Embedding(900, 768)
BertModel(
  (embeddings): BertEmbeddings(
    (word_embeddings): Embedding(31090, 768, padding_idx=0)
    (position_embeddings): Embedding(900, 768)
    (token_type_embeddings): Embedding(2, 768)
    (LayerNorm): LayerNorm((768,), eps=1e-12, elementwise_affine=True)
    (dropout): Dropout(p=0.1, inplace=False)
  )
  (encoder): BertEncoder(
    (layer): ModuleList(
      (0-11): 12 x BertLayer(
        (attention): BertAttention(
          (self): BertSelfAttention(
            (query): Linear(in_features=768, out_features=768, bias=True)
            (key): Linear(in_features=768, out_features=768, bias=True)
            (value): Linear(in_features=768, out_features=768, bias=True)
            (dropout): Dropout(p=0.1, inplace=False)
          )
          (output): BertSelfOutput(
            (dense): Linear(in_features=768, out_features=768, bias=True)
            (LayerNorm): LayerNorm((768,), eps=1e-12, elementwise_affine=True)
            (dropout): Dropout(p=0.1, inplace=False)
          )
        )
        (intermediate): BertIntermediate(
          (dense): Linear(in_features=768, out_features=3072, bias=True)
          (intermediate_act_fn): GELUActivation()
        )
        (output): BertOutput(
          (dense): Linear(in_features=3072, out_features=768, bias=True)
          (LayerNorm): LayerNorm((768,), eps=1e-12, elementwise_affine=True)
          (dropout): Dropout(p=0.1, inplace=False)
        )
      )
    )
  )
  (pooler): BertPooler(
    (dense): Linear(in_features=768, out_features=768, bias=True)
    (activation): Tanh()
  )
)
  0%|          | 0/172 [00:00<?, ?it/s]  1%|          | 1/172 [00:02<06:47,  2.38s/it]  1%|          | 2/172 [00:03<04:54,  1.73s/it]  2%|▏         | 3/172 [00:05<04:26,  1.58s/it]  2%|▏         | 4/172 [00:06<04:12,  1.51s/it]  3%|▎         | 5/172 [00:07<04:04,  1.47s/it]  3%|▎         | 6/172 [00:09<03:59,  1.44
…
